
  0%|          | 0/6 [00:00<?, ?it/s]
==========================================================================================
Layer (type:depth-idx)                   Output Shape              Param #
==========================================================================================
├─ResNetEncoder: 1-1                     [-1, 3, 512, 512]         --
|    └─Conv2d: 2-1                       [-1, 64, 256, 256]        9,408
|    └─BatchNorm2d: 2-2                  [-1, 64, 256, 256]        128
|    └─ReLU: 2-3                         [-1, 64, 256, 256]        --
|    └─MaxPool2d: 2-4                    [-1, 64, 128, 128]        --
|    └─Sequential: 2-5                   [-1, 64, 128, 128]        --
|    |    └─BasicBlock: 3-1              [-1, 64, 128, 128]        73,984
|    |    └─BasicBlock: 3-2              [-1, 64, 128, 128]        73,984
|    └─Sequential: 2-6                   [-1, 128, 64, 64]         --
|    |    └─BasicBlock: 3-3              [-1, 128, 64, 64]         230,144
|    |    └─BasicBlock: 3-4              [-1, 128, 64, 64]         295,424
|    └─Sequential: 2-7                   [-1, 256, 32, 32]         --
|    |    └─BasicBlock: 3-5              [-1, 256, 32, 32]         919,040
|    |    └─BasicBlock: 3-6              [-1, 256, 32, 32]         1,180,672
|    └─Sequential: 2-8                   [-1, 512, 16, 16]         --
|    |    └─BasicBlock: 3-7              [-1, 512, 16, 16]         3,673,088
|    |    └─BasicBlock: 3-8              [-1, 512, 16, 16]         4,720,640
├─UnetDecoder: 1-2                       [-1, 16, 512, 512]        --
|    └─Identity: 2-9                     [-1, 512, 16, 16]         --
|    └─ModuleList: 2                     []                        --
|    |    └─DecoderBlock: 3-9            [-1, 256, 32, 32]         2,360,320
|    |    └─DecoderBlock: 3-10           [-1, 128, 64, 64]         590,336
|    |    └─DecoderBlock: 3-11           [-1, 64, 128, 128]        147,712
|    |    └─DecoderBlock: 3-12           [-1, 32, 256, 256]        46,208
|    |    └─DecoderBlock: 3-13           [-1, 16, 512, 512]        6,976
├─SegmentationHead: 1-3                  [-1, 1, 512, 512]         --
|    └─Conv2d: 2-10                      [-1, 1, 512, 512]         145
|    └─Identity: 2-11                    [-1, 1, 512, 512]         --
|    └─Activation: 2-12                  [-1, 1, 512, 512]         --
|    |    └─Identity: 3-14               [-1, 1, 512, 512]         --
==========================================================================================
Total params: 14,328,209
Trainable params: 14,328,209
Non-trainable params: 0
Total mult-adds (G): 9.46
==========================================================================================
Input size (MB): 3.00
Forward/backward pass size (MB): 186.00
Params size (MB): 54.66
Estimated Total Size (MB): 243.66
…
