===============================================================================================
Layer (type:depth-idx)                        Output Shape              Param #
===============================================================================================
├─Encoder: 1-1                                [-1, 4, 512, 512]         --
|    └─SeparableConv2d: 2-1                   [-1, 4, 512, 512]         --
|    |    └─Conv2d: 3-1                       [-1, 3, 512, 512]         84
|    |    └─Conv2d: 3-2                       [-1, 4, 512, 512]         16
|    └─ResBlock: 2-2                          [-1, 4, 512, 512]         --
|    |    └─ConvBlock: 3-3                    [-1, 4, 512, 512]         176
