
  0%|          | 0/43 [00:00<?, ?it/s]
===============================================================================================
Layer (type:depth-idx)                        Output Shape              Param #
===============================================================================================
├─Encoder: 1-1                                [-1, 64, 512, 512]        --
|    └─SeparableConv2d: 2-1                   [-1, 64, 512, 512]        --
|    |    └─Conv2d: 3-1                       [-1, 3, 512, 512]         84
|    |    └─Conv2d: 3-2                       [-1, 64, 512, 512]        256
|    └─ResBlock: 2-2                          [-1, 64, 512, 512]        --
|    |    └─ConvBlock: 3-3                    [-1, 64, 512, 512]        41,216
|    |    └─ConvBlock: 3-4                    [-1, 64, 512, 512]        41,216
|    └─ModuleList: 2                          []                        --
|    |    └─ResBlock: 3-5                     [-1, 128, 256, 256]       373,952
|    |    └─ResBlock: 3-6                     [-1, 256, 128, 128]       1,493,376
|    |    └─ResBlock: 3-7                     [-1, 512, 64, 64]         5,968,640
|    └─BatchNorm2d: 2-3                       [-1, 512, 64, 64]         1,024
|    └─ReLU: 2-4                              [-1, 512, 64, 64]         --
├─Decoder: 1-2                                [-1, 1, 512, 512]         --
|    └─ModuleList: 2                          []                        --
|    |    └─UpConvBlock: 3-8                  [-1, 256, 128, 128]       4,328,448
|    |    └─UpConvBlock: 3-9                  [-1, 128, 256, 256]       1,082,880
|    |    └─UpConvBlock: 3-10                 [-1, 64, 512, 512]        271,104
|    └─BatchNorm2d: 2-5                       [-1, 64, 512, 512]        128
|    └─ReLU: 2-6                              [-1, 64, 512, 512]        --
|    └─Conv2d: 2-7                            [-1, 1, 512, 512]         577
|    └─BatchNorm2d: 2-8                       [-1, 1, 512, 512]         2
===============================================================================================
Total params: 13,602,903
Trainable params: 13,602,903
Non-trainable params: 0
Total mult-adds (M): 263.41
===============================================================================================
Input size (MB): 3.00
Forward/backward pass size (MB): 538.00
Params size (MB): 51.89
Estimated Total Size (MB): 592.89
…
