===============================================================================================
Layer (type:depth-idx)                        Output Shape              Param #
===============================================================================================
├─Encoder: 1-1                                [-1, 6, 512, 512]         --
|    └─SeparableConv2d: 2-1                   [-1, 6, 512, 512]         --
|    |    └─Conv2d: 3-1                       [-1, 3, 512, 512]         84
|    |    └─Conv2d: 3-2                       [-1, 6, 512, 512]         24
|    └─ResBlock: 2-2                          [-1, 6, 512, 512]         --
|    |    └─ConvBlock: 3-3                    [-1, 6, 512, 512]         384
|    |    └─ConvBlock: 3-4                    [-1, 6, 512, 512]         384
|    └─ModuleList: 2                          []                        --
|    |    └─ResBlock: 3-5                     [-1, 12, 256, 256]        3,390

100%|██████████| 6/6 [00:08<00:00,  1.38s/it]
 75%|███████▌  | 3/4 [00:01<00:00,  2.51it/s]
|    |    └─ResBlock: 3-6                     [-1, 24, 128, 128]        13,332
|    |    └─ResBlock: 3-7                     [-1, 48, 64, 64]          52,872
|    └─BatchNorm2d: 2-3                       [-1, 48, 64, 64]          96
|    └─ReLU: 2-4                              [-1, 48, 64, 64]          --
├─Decoder: 1-2                                [-1, 1, 512, 512]         --
|    └─ModuleList: 2                          []                        --
|    |    └─UpConvBlock: 3-8                  [-1, 24, 128, 128]        38,304
|    |    └─UpConvBlock: 3-9                  [-1, 12, 256, 256]        9,648
|    |    └─UpConvBlock: 3-10                 [-1, 6, 512, 512]         2,448
|    └─BatchNorm2d: 2-5                       [-1, 6, 512, 512]         12
|    └─ReLU: 2-6                              [-1, 6, 512, 512]         --
|    └─Conv2d: 2-7                            [-1, 1, 512, 512]         55
|    └─BatchNorm2d: 2-8                       [-1, 1, 512, 512]         2
===============================================================================================
Total params: 121,035
Trainable params: 121,035
Non-trainable params: 0
Total mult-adds (M): 40.47
===============================================================================================
Input size (MB): 3.00
Forward/backward pass size (MB): 59.50
Params size (MB): 0.46
Estimated Total Size (MB): 62.96
…
