
  0%|          | 0/6 [00:00<?, ?it/s]
===============================================================================================
Layer (type:depth-idx)                        Output Shape              Param #
===============================================================================================
├─Encoder: 1-1                                [-1, 64, 512, 512]        --
|    └─SeparableConv2d: 2-1                   [-1, 64, 512, 512]        --
|    |    └─Conv2d: 3-1                       [-1, 3, 512, 512]         84
|    |    └─Conv2d: 3-2                       [-1, 64, 512, 512]        256
|    └─ResBlock: 2-2                          [-1, 64, 512, 512]        --
|    |    └─ConvBlock: 3-3                    [-1, 64, 512, 512]        41,216
|    |    └─ConvBlock: 3-4                    [-1, 64, 512, 512]        41,216
|    └─ModuleList: 2                          []                        --
|    |    └─ResBlock: 3-5                     [-1, 128, 256, 256]       373,952
|    |    └─ResBlock: 3-6                     [-1, 256, 128, 128]       1,493,376
|    |    └─ResBlock: 3-7                     [-1, 512, 64, 64]         5,968,640
|    └─BatchNorm2d: 2-3                       [-1, 512, 64, 64]         1,024
|    └─ReLU: 2-4                              [-1, 512, 64, 64]         --
├─Decoder: 1-2                                [-1, 1, 512, 512]         --
|    └─ModuleList: 2                          []                        --
|    |    └─UpConvBlock: 3-8                  [-1, 256, 128, 128]       4,328,448
|    |    └─UpConvBlock: 3-9                  [-1, 128, 256, 256]       1,082,880
|    |    └─UpConvBlock: 3-10                 [-1, 64, 512, 512]        271,104
|    └─BatchNorm2d: 2-5                       [-1, 64, 512, 512]        128
  0%|          | 0/6 [00:03<?, ?it/s]
Traceback (most recent call last):
  File "/home/kevinteng/envs/tfenv/lib/python3.6/site-packages/IPython/core/interactiveshell.py", line 3343, in run_code
    exec(code_obj, self.user_global_ns, self.user_ns)
  File "<ipython-input-2-6dc7710c7f93>", line 1, in <module>
    runfile('/home/kevinteng/Desktop/Gland-Segmentation/train_custom.py', wdir='/home/kevinteng/Desktop/Gland-Segmentation')
…
