
  0%|          | 0/6 [00:00<?, ?it/s]
===============================================================================================
Layer (type:depth-idx)                        Output Shape              Param #
===============================================================================================
├─Encoder: 1-1                                [-1, 4, 512, 512]         --
|    └─SeparableConv2d: 2-1                   [-1, 4, 512, 512]         --
|    |    └─Conv2d: 3-1                       [-1, 3, 512, 512]         84
|    |    └─Conv2d: 3-2                       [-1, 4, 512, 512]         16
|    └─ResBlock: 2-2                          [-1, 4, 512, 512]         --
|    |    └─ConvBlock: 3-3                    [-1, 4, 512, 512]         176
|    |    └─ConvBlock: 3-4                    [-1, 4, 512, 512]         176
|    └─ModuleList: 2                          []                        --
|    |    └─ResBlock: 3-5                     [-1, 8, 256, 256]         1,532
|    |    └─ResBlock: 3-6                     [-1, 16, 128, 128]        5,976


 67%|██████▋   | 4/6 [00:06<00:01,  1.01it/s]
|    └─BatchNorm2d: 2-3                       [-1, 32, 64, 64]          64
|    └─ReLU: 2-4                              [-1, 32, 64, 64]          --
├─Decoder: 1-2                                [-1, 1, 512, 512]         --
|    └─ModuleList: 2                          []                        --
|    |    └─UpConvBlock: 3-8                  [-1, 16, 128, 128]        17,088
|    |    └─UpConvBlock: 3-9                  [-1, 8, 256, 256]         4,320
|    |    └─UpConvBlock: 3-10                 [-1, 4, 512, 512]         1,104
|    └─BatchNorm2d: 2-5                       [-1, 4, 512, 512]         8
|    └─ReLU: 2-6                              [-1, 4, 512, 512]         --
|    └─Conv2d: 2-7                            [-1, 1, 512, 512]         37
|    └─BatchNorm2d: 2-8                       [-1, 1, 512, 512]         2
===============================================================================================
Total params: 54,183
Trainable params: 54,183
Non-trainable params: 0
Total mult-adds (M): 33.98
===============================================================================================
Input size (MB): 3.00
Forward/backward pass size (MB): 43.00
Params size (MB): 0.21
Estimated Total Size (MB): 46.21
…
